models/model.pth (torch, 378536 bytes, 8 tensors)

conv1.weight f4 [32, 1, 3, 3]
0.049473424 0.26324615 0.12233389 0.23810725 -0.281872 -0.14002283 0.09303371 -0.07185789
-0.2577709 -0.04683007 -0.24917643 -0.0010830824 -0.19282866 -0.2186689 -0.19304925 -0.29232585
0.03736597 -0.16241464 -0.14537646 0.11087326 0.26671934 -0.21722758 -0.23670334 0.30676112
-0.39354423 -0.37261856 0.44960928 0.30675036 0.15049054 -0.41286525 0.20273598 -0.3920513
-0.30143893 -0.6553419 -0.4854742 -0.042757683 0.23431487 0.17372245 -0.014295346 -0.009623217
-0.28187698 0.27716595 -0.26290852 0.19543922 0.08409421 0.37335527 -0.12748119 -0.4050735
-0.02749979 -0.69316924 0.025128368 -0.31227535 -0.28643927 0.42218032 -0.3879205 -0.3219153
-0.30667546 0.07451281 0.07594645 -0.41141662 0.019093039 -0.16855738 -0.22611625 -0.04163686
0.13270165 -0.34922332 -0.3015315 -0.39312726 -0.52920276 -0.12611718 -0.21151507 0.27921042
-0.15460925 0.3681518 0.16013576 0.4396836 0.33821496 -0.26492873 0.01151501 -0.43728137
-0.4009769 0.16612786 0.08680556 -0.29142934 0.15387058 0.18948288 -0.39346382 -0.17378645
-0.51088357 -0.37122458 0.29587665 0.14792724 -0.4208994 0.3353473 -0.36616394 0.023547024
0.20708089 -0.063048735 -0.5824623 0.007727617 0.15585597 -0.21778435 0.11589078 0.2699184
-0.439776 0.18985753 0.30941418 -0.5159329 0.054965667 0.19674467 -0.08323821 0.10189307
0.17096332 0.35275105 -0.40827912 -0.33001623 -0.26122668 -0.36484292 -0.25468093 0.28180435
-0.39432335 -0.08022153 0.38234416 -0.15833828 0.20827205 0.4405667 -0.31471202 -0.44307518
-0.13919805 -0.1148055 0.24647415 -0.350105 0.21177638 0.21392663 0.28984603 0.103270754
-0.069588736 0.18513286 -0.013022277 -0.017489294 -0.121650696 -0.0875518 0.20099483 -0.18918021
0.24200821 0.4977599 0.2586663 -0.34171078 -0.38352743 0.048109137 -0.16515258 -0.16244839
-0.34723216 -0.3866201 0.08554199 -0.4296885 0.26281288 0.25628197 0.32345378 0.12754898
-0.33653945 -0.26191506 0.06640007 0.38545513 -0.0012346447 0.11083172 0.41315845 -0.11493629
-0.46758118 -0.5982134 -0.541287 0.12823048 0.15541272 0.05822186 -0.029681636 -0.15037948
0.07853378 0.10154467 0.24748221 -0.28589794 -0.11856543 -0.017055746 -0.031923335 0.07009451
0.16343528 0.22574799 -0.14945842 -0.04619103 0.12539904 -0.36406195 -0.2561408 0.15435456
0.015949804 -0.67221147 -0.24933727 0.5853376 -0.08219523 -0.52478355 0.02814792 -0.07495475
-0.04772587 0.3144489 -0.0720807 -0.44427878 0.13507248 0.31793767 -0.24831347 0.16092551
0.08245385 0.17635414 0.14341302 -0.3027483 -0.08089117 0.21186388 -0.29311404 0.21731874
-0.2919272 0.03741473 -0.22395214 0.058628067 -0.18417582 0.048829537 0.043026965 -0.08315145
0.40226266 0.17957057 -0.3930679 -0.46545792 0.45232105 0.10134395 -0.50521004 -0.23023072
-0.40156755 -0.60055834 0.09738078 -0.19030726 -0.31533793 -0.12995604 0.030170979 -0.30410087
0.3145185 0.46049306 0.11234428 -0.0138362795 -0.12885281 0.049348712 -0.1464513 0.19269982
-0.10773549 -0.110434934 0.27297038 -0.24068584 -0.09427822 -0.16059436 -0.45456636 -0.34587094
00000000: a5a4 4a3d 33c8 863e 318a fa3d 63d2 733e
00000010: 8751 90be 2562 0fbe 7588 be3d 3b2a 93bd
00000020: 8cfa 83be e3d0 3fbd 1b28 7fbe 37f6 8dba
00000030: e074 45be bdea 5fbe b4ae 45be bcab 95be
00000040: 0f0d 193d 0650 26be 91dd 14be 8511 e33d
00000050: 708f 883e e870 5ebe 5c62 72be cb0f 9d3e
00000060: a17e c9be dcc7 bebe 3033 e63e 620e 9d3e
00000070: 311a 1a3e 1363 d3be 059a 4f3e f3ba c8be
00000080: 3456 9abe 7dc4 27bf 1390 f8be ae22 2fbd
00000090: 3df0 6f3e 4ce4 313e 0737 6abc b3aa 1dbc
000000a0: 2e52 90be b2e8 8d3e f29b 86be 3821 483e
000000b0: 9639 ac3d 6c28 bf3e 6e8a 02be cb65 cfbe
000000c0: 3d47 e1bc 8a73 31bf 02da cd3c 8ee2 9fbe
000000d0: 2ba8 92be 0528 d83e 849d c6be 15d2 a4be
000000e0: 9104 9dbe 2c9a 983d d089 9b3d 33a5 d2be
000000f0: 0169 9c3c 4e9a 2cbe 058b 67be 6a8b 2abd
00000100: f1e2 073e 66cd b2be 5662 9abe fa47 c9be
00000110: d579 07bf dd24 01be 6897 58be abf4 8e3e
00000120: e351 1ebe 657e bc3e a1fa 233e 351e e13e
00000130: 832a ad3e bda4 87be 74a9 3c3c 58e3 dfbe
00000140: d84c cdbe 6c1d 2a3e 1dc7 b13d 3a36 95be
00000150: 4090 1d3e cd07 423e 1774 c9be 13f5 31be
00000160: 44c9 02bf 2611 bebe 257d 973e 3d7a 173e
00000170: 2080 d7be a4b2 ab3e d779 bbbe b0e5 c03c
00000180: 030d 543e b21f 81bd 401c 15bf f337 fd3b
00000190: b598 1f3e dc02 5fbe 2558 ed3d bf32 8a3e
000001a0: 522a e1be 036a 423e 896b 9e3e 2e14 04bf
000001b0: ae23 613d 6f77 493e cb78 aabd 50ad d03d
000001c0: 0211 2f3e c99b b43e f609 d1be e3f7 a8be
000001d0: 81bf 85be b1cc babe 8a65 82be a948 903e
000001e0: c0e4 c9be 2f4b a4bd 9dc2 c33e 6e23 22be
000001f0: 4545 553e f591 e13e ef21 a1be c0da e2be
00000200: ef89 0ebe 251f ebbd b863 7c3e f640 b3be
00000210: e8db 583e 950f 5b3e b366 943e 9e7f d33d
00000220: 8a84 8ebd 7893 3d3e 635b 55bc b545 8fbc
00000230: 0024 f9bd 5c4e b3bd 97d1 4d3e 75b8 41be
00000240: 00d1 773e 63da fe3e e96f 843e b7f4 aebe
00000250: b55d c4be 160e 453d c21d 29be df58 26be
00000260: 6ac8 b1be 12f3 c5be a430 af3d 2200 dcbe
00000270: 698f 863e 6437 833e bc9b a53e 339c 023e
00000280: e64e acbe bb19 86be c3fc 873d 605a c53e
00000290: cdd3 a1ba befb e23d 8189 d33e b863 ebbd
000002a0: cd66 efbe 8324 19bf c991 0abf da4e 033e
000002b0: 8324 1f3e 0c7a 6e3d e726 f3bc 14fd 19be
000002c0: 52d6 a03d a7f6 cf3d fa6b 7d3e 3761 92be
000002d0: 6fd2 f2bd 7eb8 8bbc 0bc2 02bd b68d 8f3d
000002e0: 945b 273e 7b2a 673e a10b 19be ce32 3dbd
000002f0: 9b68 003e 5466 babe e324 83be 1f0f 1e3e
00000300: 2aa9 823c 0d16 2cbf 4552 7fbe afd8 153f
00000310: f955 a8bd 3758 06bf 7796 e63c e081 99bd
00000320: 347c 43bd 72ff a03e 0c9f 93bd 8278 e3be
00000330: 7150 0a3e bac8 a23e e345 7ebe a8c9 243e
00000340: 90dd a83d 2e96 343e ddda 123e d301 9bbe
00000350: 45aa a5bd d8f2 583e 0b13 96be ce88 5e3e
00000360: 7b77 95be 3040 193d b653 65be fc23 703d
00000370: 9698 3cbe 7b01 483d 0b3d 303d 4f4b aabd
00000380: 5ff5 cd3e 59e1 373e 3240 c9be 8050 eebe
00000390: a096 e73e 6b8d cf3d 7255 01bf 9ac1 6bbe
000003a0: 439a cdbe 31be 19bf 936f c73d e8df 42be
000003b0: f973 a1be 3213 05be 2129 f73c 1cb3 9bbe
000003c0: 9208 a13e bfc5 eb3e c214 e63d 90b1 62bc
000003d0: fef1 03be e021 4a3d 54f7 15be 1a53 453e
000003e0: 6da4 dcbd b62b e2bd c6c2 8b3e 5976 76be
000003f0: f014 c1bd d972 24be ecbc e8be ff15 b1be

conv1.bias f4 [32]
-0.053044166 0.06351274 -0.12920931 -0.11176071 -0.36176863 -0.19634326 0.14263995 0.26962757
-0.22654827 0.01089959 -0.18918152 -0.07904269 -0.08254143 -0.19860396 -0.17587695 -0.34714907
-0.21153632 -0.13900861 -0.13545237 -0.4620819 -0.33695272 -0.08621782 -0.051099658 -0.1580282
-0.14819106 -0.26730677 -0.04503166 -0.11260563 -0.14165486 -0.24241349 -0.14929353 -0.1889171
00000000: d744 59bd f812 823d 724f 04be cde2 e4bd
00000010: bd39 b9be 350e 49be 3510 123e a00c 8a3e
00000020: 45fc 67be 3294 323c cdb8 41be 22e1 a1bd
00000030: 7b0b a9bd d65e 4bbe 1619 34be 86bd b1be
00000040: fa9c 58be 4658 0ebe 07b4 0abe 0096 ecbe
00000050: 1185 acbe f892 b0bd e04d 51bd 25d2 21be
00000060: 66bf 17be 6fdc 88be 1e73 38bd c89d e6bd
00000070: f90d 11be 3e3b 78be 67e0 18be 7c73 41be

conv2.weight f4 [64, 32, 3, 3]
0.022690143 0.00034981334 -0.22790052 0.13628753 -0.07655225 -0.07378258 -0.025606941 0.086695895
0.1423833 -0.19256262 0.03142691 -0.022896584 -0.09824485 -0.0680411 -0.15126866 -0.22508669
-0.26084757 -0.07843591 0.026758738 -0.14658038 0.049764074 -0.030786898 -0.13595591 -0.059970565
-0.033093337 -0.17258453 -0.027699996 -0.27465498 0.09160102 0.07097576 -0.1825404 -0.018422335
-0.05052727 -0.257083 -0.11014185 0.24159722 -0.041150402 -0.1320841 -0.06305737 -0.021211268
-0.11324898 -0.11121227 0.074749656 -0.14448524 -0.0073163286 -0.20588326 0.052537397 0.32856858
-0.15472539 0.05785342 -0.09356863 -0.047405522 -0.28296044 0.23323251 -0.09558351 -0.032372855
-0.05544712 -0.04797869 -0.023001917 -0.10394571 -0.18577552 -0.42080852 -0.3061609 -0.22019334
-0.014283446 0.13200247 -0.11390546 0.05558435 -0.13975374 0.026306018 -0.15664774 -0.06511423
0.108750045 0.12235992 -0.15698765 -0.051687412 -0.008587846 0.1539512 -0.104868315 0.17989711
0.20104057 -0.021410113 0.016335348 -0.12272605 -0.11712104 -0.11844737 -0.115459956 -0.20602196
-0.10372374 0.09834448 0.123175494 0.10766911 -0.15210865 0.14321625 -0.033889454 -0.026743028
0.057651505 -0.13674982 0.15155014 0.21729822 0.080432124 -0.22847681 0.13766773 -0.22623692
-0.023780726 -0.021900248 -0.098758295 -0.052033704 -0.0030358464 -0.017214889 -0.09894683 -0.05162059
0.021331228 0.12175648 0.048329506 0.089746624 0.09200784 0.043843437 -0.27492827 0.13483116
-0.109932855 -0.004534107 0.047324155 -0.03347026 0.013766423 -0.03813374 -0.046599504 -0.14976658
0.08997007 0.050807413 0.019348092 0.08396426 0.061420787 0.17858434 0.04284218 0.14687379
0.009824271 -0.18449752 0.039204225 -0.11809716 0.001836004 0.08755325 0.10255922 -0.004040787
-0.17652649 -0.096770234 -0.16040877 -0.14934078 0.05043544 -0.042198624 0.068782754 0.16207883
0.23606774 0.28021538 0.062967986 -0.1008367 0.118848376 -0.21529035 0.09189244 0.030447498
0.10008971 0.23145826 0.012560282 0.048152998 -0.117980815 -0.18018605 0.13441813 0.030698396
-0.010160524 0.2203622 0.13294096 -0.007676966 -0.048514985 -0.22634642 0.083456516 -0.09222772
0.012163637 -0.027611589 0.02752982 -0.07589404 0.052122377 -0.1601164 -0.06352975 -0.15936238
-0.118880816 -0.078415774 0.022516655 -0.05033189 -0.018223234 -0.06588741 0.016423687 -0.21651454
0.02988943 -0.121329896 -0.24058601 0.007413839 -0.26734364 -0.31239355 0.13517556 0.05409636
-0.19585972 0.19032761 -0.061190587 -0.12157371 0.024462108 -0.10902885 -0.11223154 -0.01687217
-0.007245318 -0.07158288 -0.01205198 -0.023141159 -0.0657545 -0.033140622 0.043617215 -0.037459187
-0.15225776 -0.12939088 0.03459135 -0.052861713 0.05673854 -0.039404154 0.03946245 0.07261438
-0.015707886 -0.0034756367 0.264539 -0.096613236 -0.08978767 -0.22942135 -0.19188216 -0.3913253
-0.50305784 -0.05995942 0.0610672 0.08216513 -0.08811888 0.024281016 0.033573832 -0.11932261
0.087726 -0.017460523 -0.21519323 0.077071115 -0.15470898 -0.041590307 0.07233763 -0.10067694
0.0074903043 0.018122803 -0.044088315 0.016410267 -0.16208111 -0.23666492 0.07927569 -0.05903449
00000000: aee0 b93c 2767 b739 c15e 69be f58e 0b3e
00000010: 6dc7 9cbd 521b 97bd a6c5 d1bc 9e8d b13d
00000020: eecc 113e 232f 45be 81b9 003d 9e91 bbbc
00000030: 9934 c9bd 2259 8bbd 2ce6 1abe 207d 66be
00000040: d08d 85be 02a3 a0bd 2435 db3c 2b19 16be
00000050: 6ad5 4b3d ce34 fcbc 0738 0bbe b2a3 75bd
00000060: e18c 07bd 00ba 30be 1aeb e2bc 949f 8cbe
00000070: 5199 bb3d bd5b 913d dfeb 3abe 70ea 96bc
00000080: aff5 4ebd 62a0 83be 0d92 e1bd 4365 773e
00000090: 538d 28bd 0e41 07be 3924 81bd 41c3 adbc
000000a0: 15ef e7bd 42c3 e3bd 5916 993d f0f3 13be
000000b0: d0bd efbb 10d3 52be 7431 573d 243a a83e
000000c0: 5570 1ebe b5f7 6c3d e9a0 bfbd 4b2c 42bd
000000d0: 31e0 90be 81d4 6e3e 4ac1 c3bd 6699 04bd
000000e0: 851c 63bd 4e85 44bd 846e bcbc 7de1 d4bd
000000f0: f03b 3ebe 3774 d7be 1fc1 9cbe 5d7a 61be
00000100: 1d05 6abc a82b 073e 4447 e9bd 6aac 633d
00000110: 9b1b 0fbe b87f d73c 4468 20be 9c5a 85bd
00000120: 58b8 de3d d697 fa3d 5fc1 20be 2eb6 53bd
00000130: 09b4 0cbc 62a5 1d3e 33c5 d6bd f336 383e
00000140: 94dd 4d3e 4364 afbc b5d1 853c cc57 fbbd
00000150: 28dd efbd 8994 f2bd 4576 ecbd 6cf7 52be
00000160: 1d6d d4bd d568 c93d 6f43 fc3d 9f81 dc3d
00000170: 5fc2 1bbe 48a7 123e abcf 0abd 3214 dbbc
00000180: fc23 6c3d 2508 0cbe f62f 1b3e 6d83 5e3e
00000190: 99b9 a43d d3f5 69be c5f8 0c3e a7aa 67be
000001a0: cccf c2bc 2668 b3bc ca41 cabd 4b21 55bd
000001b0: 0df5 46bb 3d06 8dbc a3a4 cabd 1d70 53bd
000001c0: d4be ae3c 765b f93d 29f5 453d 14cd b73d
000001d0: 9b6e bc3d 2d95 333d 66c3 8cbe 2e11 0a3e
000001e0: 7a24 e1bd d992 94bb f9d6 413d 1d18 09bd
000001f0: 908c 613c 2032 1cbd 1fdf 3ebd 695c 19be
00000200: 3a42 b83d 6f1b 503d e47f 9e3c 74f5 ab3d
00000210: 5d94 7b3d d0de 363e 487b 2f3d 1566 163e
00000220: fbf5 203c ebec 3cbe 9c94 203d ecdc f1bd
00000230: 12a6 f03a 1e4f b33d 910a d23d 9468 84bb
00000240: 5cc3 34be 792f c6bd 3242 24be caec 18be
00000250: 6495 4e3d 77d8 2cbd f9dd 8c3d fef7 253e
00000260: bebb 713e 6478 8f3e 5cf5 803d 7983 cebd
00000270: c766 f33d 1375 5cbe 1b32 bc3d 086d f93c
00000280: d5fb cc3d 6503 6d3e a4c9 4d3c 143c 453d
00000290: ed9f f1bd b182 38be e8a4 093e 347b fb3c
000002a0: 5478 26bc a1a6 613e ad21 083e 0f8f fbbb
000002b0: a6b7 46bd 5bc7 67be 40eb aa3d e3e1 bcbd
000002c0: fe49 473c b331 e2bc 3886 e13c 566e 9bbd
000002d0: 467e 553d 8ef5 23be e31b 82bd e42f 23be
000002e0: c977 f3bd 7398 a0bd d974 b83c d028 4ebd
000002f0: e448 95bc faef 86bd f88a 863c fdb5 5dbe
00000300: aeda f43c cf7b f8bd 2e5c 76be caef f23b
00000310: 44e1 88be 0cf2 9fbe 766b 0a3e 2594 5d3d
00000320: 738f 48be 3ee5 423e fba2 7abd a3fb f8bd
00000330: c264 c83c 854a dfbd a6d9 e5bd 8137 8abc
00000340: 226a edbb 0c9a 92bd ab75 45bc 8792 bdbc
00000350: 4caa 86bd 76be 07bd f7a7 323d ce6e 19bd
00000360: 75e9 1bbe 0b7f 04be a9af 0d3d 8685 58bd
00000370: ac66 683d 4066 21bd 61a3 213d d9b6 943d
00000380: d3ad 80bc 82c7 63bb a871 873e 29dd c5bd
00000390: 99e2 b7bd 6eed 6abe c27c 44be ca5b c8be
000003a0: 66c8 00bf 0298 75bd 9a21 7a3d 3146 a83d
000003b0: ac77 b4bd fbe8 c63c b784 093d 6a5f f4bd
000003c0: b0a9 b33d 5f09 8fbc 9d5b 5cbe 76d7 9d3d
000003d0: 086c 1ebe 995a 2abd c025 943d b62f cebd
000003e0: 3a71 f53b 4676 943c f395 34bd d36e 863c
000003f0: 97f8 25be 4a58 72be 4b5b a23d 26ce 71bd

conv2.bias f4 [64]
-0.0631048 0.016545728 -0.0132516865 -0.025404124 -0.061012894 -0.0018564881 -0.0313003 -0.029419612
-0.01155344 -0.010282698 -0.008850658 -0.107018 -0.1256729 -0.095404424 0.006176841 -0.057197947
0.03341434 0.017032137 -0.032404725 -0.022160819 -0.013625268 0.06267162 -0.0953619 -0.06930144
-0.051628504 -0.016974 0.013987878 -0.016933545 -0.07191296 -0.0821808 -0.020500455 -0.092381634
0.0074593658 -0.014669722 -0.070449695 0.055342585 0.037581064 -0.044987384 -0.06279344 -0.007712158
-0.002776273 0.04901561 -0.12085544 -0.00370385 -0.014505848 -0.041110106 -0.010167016 0.00026564917
0.0325965 0.07914673 0.04570152 0.013681004 0.044939645 -0.08669018 -0.07385109 -0.06779822
-0.046006635 -0.07678762 -0.06226305 0.021207262 -0.041071486 -0.019361053 0.013810489 -0.0056604748
00000000: 173d 81bd e88a 873c 9a1d 59bc 4f1c d0bc
00000010: a8e8 79bd 6755 f3ba be34 00bd 6601 f1bc
00000020: a44a 3dbc c378 28bc 5a02 11bc 412c dbbd
00000030: 66b0 00be 6563 c3bd 1967 ca3b 6548 6abd
00000040: 7add 083d fb86 8b3c d1ba 04bd 9b8a b5bc
00000050: 843c 5fbc fa59 803d 1a4d c3bd eaed 8dbd
00000060: 6978 53bd 0f0d 8bbc 6a2d 653c 38b8 8abc
00000070: 1a47 93bd 684e a8bd 92f0 a7bc 9532 bdbd
00000080: b26d f43b 4659 70bc ee47 90bd e8ae 623d
00000090: 9aee 193d b144 38bd d999 80bd 45b6 fcbb
000000a0: 22f2 35bb 98c4 483d 0f83 f7bd 4bbc 72bb
000000b0: f0a9 6dbc 1263 28bd 8e93 26bc d446 8b39
000000c0: e883 053d ae17 a23d 8431 3b3d 4a26 603c
000000d0: a212 383d 9f8a b1bd 3e3f 97bd cbd9 8abd
000000e0: 7471 3cbd d442 9dbd 8a07 7fbd daba ad3c
000000f0: 933a 28bd 129b 9ebc 6445 623c 817b b9bb

conv3.weight f4 [128, 64, 3, 3]
-0.050490882 -0.04282168 -0.04398554 -0.009989228 0.0107021835 -0.0011631171 -0.026868619 0.0055131116
-0.049918994 -0.008884729 -0.0368023 -4.9051694e-05 0.029029751 -0.05078041 -0.03975182 0.024053846
-0.011036039 -0.012715664 2.4127863e-05 0.028372752 -0.044949386 -0.03948749 -0.054561462 -0.060094703
-0.012510673 0.0274244 0.022033049 0.0018643003 0.004635585 -0.052424148 0.025896618 -0.06743276
-0.03896712 0.020402964 0.03847856 0.004408346 -0.008690878 -0.044334535 -0.016824111 -0.05994467
-0.0023319535 0.03230865 -0.02654887 -0.045156483 -0.031006657 -0.0034593956 0.0007091183 -0.075072855
-0.026198927 -0.009267965 -0.028772252 -0.0090789385 -0.026320033 0.03353881 -0.045983803 0.03814601
0.009082632 -0.03019441 -0.053735796 -0.039585542 0.02920989 -0.044488523 -0.024632074 -0.055406082
0.019371862 0.011516088 -0.030803772 0.013590962 0.023804417 0.03006298 0.012503476 -0.0096438145
-0.016677393 -0.020380128 -0.06961344 0.01776547 -0.014239638 -0.04482131 -0.050464965 -0.045277126
-0.027219739 -0.035616886 0.010810544 -0.010096218 -0.009822762 -0.03824502 0.014166926 -0.0025849338
0.04600115 0.023796264 -0.023528587 -0.0038246522 -0.015755124 -0.006449066 -0.0037691486 0.0056185178
-0.0097263595 -0.014745879 -0.028274812 0.015022154 0.020443534 -0.022097602 -0.004953603 -0.035377406
0.0095064305 0.033374544 -0.036904264 -0.06262026 -0.044231836 0.015262932 -0.011773715 0.00082251587
-0.021128897 -0.012520689 -0.07762771 -0.030613314 -0.010766813 -0.0075320373 -0.01480855 -0.02832575
-0.007392364 -0.026219722 0.018552812 0.0059656156 0.0013945808 0.014977505 -0.055269986 0.017178593
-0.004728294 -0.03039881 -0.0021719066 0.010581565 0.026070857 -0.002883461 -0.051746815 0.02485664
-0.03219722 -0.047116414 0.017607685 -0.0367258 -0.0055818125 -0.027970163 0.024125751 0.020944843
-0.05957597 -0.021771826 -0.005953789 0.0012715851 0.021210892 -0.0016562933 -0.031231012 0.013188174
-0.061173704 -0.0017382693 -0.05947725 -0.019277722 -0.038100973 -0.0034540242 -0.07944775 -0.0011017604
-0.050394744 -0.043785993 -0.0011916949 -0.018600363 -0.058606397 -0.031185541 -0.014237497 -0.018253058
0.0037972124 -0.016340349 -0.011909791 -0.006701038 0.0032469633 -0.00044395172 -0.03551562 -0.031974554
0.009286637 0.04653155 -0.030830633 -0.05069308 -0.02217593 0.0065629357 0.014149858 0.024877949
-0.012461515 0.00867869 0.038246848 -0.024010217 -0.08261042 -0.0463033 0.012907512 0.01315009
0.027812038 -0.023655869 -0.041708022 0.008477813 0.021107871 -0.031482995 -0.00049888133 -0.05336506
-0.011205194 -0.042920157 -0.023699293 0.020783147 -0.014385936 0.026193848 0.02037749 -0.047603644
-0.017321495 0.002308551 0.017888796 -0.030382734 -0.012494652 0.042241618 -0.047804683 -0.015268541
0.017719312 -0.03271073 -0.0036781738 -0.03335765 -0.025266834 0.004188505 -0.00073816965 -0.042358045
-0.0074801915 0.016640024 0.035565108 0.0009020678 0.009231457 -0.042203598 -0.046045948 -0.01863755
-0.06295014 0.004499161 0.0065155723 0.031576816 -0.028477807 0.00036532184 0.02386375 0.024691882
-0.030982044 -0.03313331 -0.0075459913 0.0048232265 -0.001614379 0.012589615 -0.010299216 0.012403586
-0.04188155 -0.022391355 -0.063189834 -0.056636877 -0.024268348 -0.024269015 0.001639358 0.018202627
00000000: 87cf 4ebd c965 2fbd 2e2a 34bd dca9 23bc
00000010: 3658 2f3c bc73 98ba 941b dcbc 55a7 b43b
00000020: dc77 4cbd 4191 11bc 02be 16bd dbbc 4db8
00000030: cdcf ed3c 1fff 4fbd ced2 22bd 920c c53c
00000040: 81d0 34bc 5c55 50bc 3166 ca37 f96d e83c
00000050: d91c 38bd a2bd 21bd d77b 5fbd dd25 76bd
00000060: 91f9 4cbc 23a9 e03c a77e b43c 8a5b f43a
00000070: 1be6 973b b4ba 56bd 2525 d43c 301a 8abd
00000080: fd9b 1fbd 1e24 a73c b29b 1d3d e373 903b
00000090: 2f64 0ebc 2198 35bd b8d2 89bc 8b88 75bd
000000a0: b0d3 18bb 1356 043d 047d d9bc 01f6 38bd
000000b0: ac01 febc 07b7 62bb 20e4 393a ccbf 99bd
000000c0: 229f d6bc aad8 17bc c9b3 ebbc d4bf 14bc
000000d0: 1c9d d7bc fe5f 093d 8359 3cbd fe3e 1c3d
000000e0: 52cf 143c 445a f7bc 111a 5cbd 7324 22bd
000000f0: 9449 ef3c 9939 36bd 34c9 c9bc 7df1 62bd
00000100: bdb1 9e3c f9ad 3c3c 3158 fcbc a0ac 5e3c
00000110: 7b01 c33c a346 f63c 61db 4c3c 1701 1ebc
00000120: 079f 88bc 3af4 a6bc 7e91 8ebd e488 913c
00000130: 5f4d 69bc 8d96 37bd 5ab4 4ebd 8274 39bd
00000140: eefb debc 03e3 11bd b51e 313c 9c6a 25bc
00000150: a6ef 20bc cfa6 1cbd 651c 683c fe67 29bb
00000160: b46b 3c3d 62f0 c23c 06bf c0bc 04a7 7abb
00000170: e410 81bc b052 d3bb d203 77bb 8b1b b83b
00000180: 4f5b 1fbc b398 71bc 94a0 e7bc 7b1f 763c
00000190: 3379 a73c 0806 b5bc d551 a2bb e6e7 10bd
000001a0: dcc0 1b3c bfb3 083d ed28 17bd 0d3f 80bd
000001b0: 712c 35bd 6011 7a3c 8ae6 40bc 1b9e 573a
000001c0: 8216 adbc 9323 4dbc 47fb 9ebd c6c8 fabc
000001d0: 4967 30bc 4fcf f6bb 8f9f 72bc 670b e8bc
000001e0: a53b f2bb beca d6bc 11fc 973c 367b c33b
000001f0: 5eca b63a 3664 753c c862 62bd 1fba 8c3c
00000200: ceef 9abb ed06 f9bc 8c56 0ebb 4d5e 2d3c
00000210: 8d92 d53c 73f8 3cbb 78f4 53bd 27a0 cb3c
00000220: 3be1 03bd 24fd 40bd fe3d 903c cb6d 16bd
00000230: a3e7 b6bb af21 e5bc 5ea3 c53c 8594 ab3c
00000240: ef05 74bd d45a b2bc 0118 c3bb 51ab a63a
00000250: 77c2 ad3c fb17 d9ba 2ed8 ffbc 3613 583c
00000260: 4791 7abd a4d6 e3ba 6b9e 73bd 50ec 9dbc
00000270: c40f 1cbd e95c 62bb 80b5 a2bd f268 90ba
00000280: b86a 4ebd f158 33bd a532 9cba ca5f 98bc
00000290: 430d 70bd d278 ffbc 6444 69bc 7087 95bc
000002a0: a7da 783b 32dc 85bc 4921 43bc 6294 dbbb
000002b0: 01cb 543b 31c2 e8b9 d478 11bd c0f7 02bd
000002c0: fb26 183c de97 3e3d 8690 fcbc 8ca3 4fbd
000002d0: 4caa b5bc e50d d73b ced4 673c d7cc cb3c
000002e0: 622b 4cbc 1031 0e3c baa8 1c3d 13b1 c4bc
000002f0: a72f a9bd 87a8 3dbd 077a 533c 7a73 573c
00000300: 12d6 e33c f4c9 c1bc 08d6 2abd 86e6 0a3c
00000310: 6aea ac3c 50f4 00bd 5cc7 02ba 5295 5abd
00000320: fd95 37bc 0ccd 2fbd 0525 c2bc 6b41 aa3c
00000330: fdb2 6bbc 7b94 d63c b2ee a63c 0afc 42bd
00000340: cfe5 8dbc 0f4b 173b 868b 923c 36e5 f8bc
00000350: 5eb6 4cbc 8c05 2d3d d8ce 43bd e728 7abc
00000360: 1728 913c b0fb 05bd 840d 71bb 08a2 08bd
00000370: 64fc cebc ba3f 893b ba81 41ba a17f 2dbd
00000380: 651c f5bb a950 883c b8ac 113d bf78 6c3a
00000390: 893f 173c aedd 2cbd ad9a 3cbd c6ad 98bc
000003a0: 01ec 80bd b36d 933b 9580 d53b b156 013d
000003b0: 4a4a e9bc ab88 bf39 e97d c33c a146 ca3c
000003c0: 0ece fdbc cbb6 07bd 5d44 f7bb 280c 9e3b
000003d0: 9299 d3ba ac44 4e3c 0bbe 28bc 6938 4b3c
000003e0: fd8b 2bbd 136e b7bc ac69 81bd 12fc 67bd
000003f0: 6ace c6bc d0cf c6bc badf d63a ad1d 953c

conv3.bias f4 [128]
-0.017317388 -0.011402584 -0.11402414 -0.04411009 -0.05772743 -0.057128392 0.012638172 -0.003652118
-0.026791558 0.00965443 -0.0807628 -0.07043921 -0.06684257 -0.032997582 0.013344498 -0.0045323237
-0.055988494 -0.0615306 -0.057236254 -0.029081877 -0.035295147 -0.005798865 -0.0027842277 -0.05720595
-0.0475701 -0.0024354993 -0.094837815 -0.039906725 0.0181994 -0.046694648 -0.06971494 -0.106640466
0.03828957 -0.025649216 -0.045407593 -0.04251157 -0.03289232 -0.030296672 0.009903379 0.027189815
-0.04286899 -0.021294512 -0.06317782 -0.025038073 -0.058492392 0.01944119 -0.014497557 -0.00084896985
-0.11540173 -0.0027955878 -0.0599143 -0.05701071 -0.11011808 -0.061828546 -0.09830832 -0.07458956
-0.073571876 -0.09681293 -0.03004728 -0.017518928 -0.0757417 -0.0037046552 0.018537397 -0.08207416
-0.055315558 -0.018335596 -0.0547804 -0.010607887 -0.015577603 -0.05367073 0.01764115 -0.05847139
-0.0001238372 -0.053199667 -0.04258393 -0.077303395 -0.013880387 -0.043772563 -0.06797688 0.003153002
-0.04462445 -0.08896589 -0.05166161 -0.02770589 -0.005012878 0.022045903 0.02899548 -0.031117167
-0.017215434 -0.016377809 0.021690506 -0.033059545 -0.067315236 0.05989756 -0.030861814 -0.003004836
-0.03801717 -0.019366214 -0.028293805 0.014080376 -0.029697757 -0.05516924 0.014958923 -0.019595886
-0.041603863 -0.0516487 -0.021238234 -0.060100444 -0.021085687 -0.034276355 -0.09827257 -0.05680613
-0.030190783 -0.00060864654 0.0083132675 -0.009966381 -0.019467661 -0.04399717 -0.022440795 -0.0468582
-0.032696065 -0.022621844 -0.011071022 -0.017706528 -0.07279387 -0.06615804 -0.10845083 -0.10386648
00000000: 32dd 8dbc e7d1 3abc 7d85 e9bd c8ac 34bd
00000010: 9973 6cbd 76ff 69bd 5610 4f3c 5f58 6fbb
00000020: f879 dbbc 9d2d 1e3c f866 a5bd 6f42 90bd
00000030: c2e4 88bd 7928 07bd e2a2 5a3c e383 94bb
00000040: 3154 65bd 8307 7cbd 9070 6abd 1e3d eebc
00000050: a591 10bd 6804 bebb 9777 36bb c950 6abd
00000060: ddd8 42bd e69c 1fbb 543a c2bd 3c75 23bd
00000070: e816 953c e342 3fbd b5c6 8ebd 5166 dabd
00000080: 86d5 1c3d 4e1e d2bc 50fd 39bd 9d20 2ebd
00000090: 19ba 06bd ba30 f8bc c841 223c 2dbd de3c
000000a0: 6597 2fbd d471 aebc 5f63 81bd a51c cdbc
000000b0: b895 6fbd 2143 9f3c 2987 6dbc 678d 5eba
000000c0: be57 ecbd 2e36 37bb b268 75bd 1084 69bd
000000d0: 9785 e1bd ee3f 7dbd df55 c9bd 69c2 98bd
000000e0: daac 96bd dc45 c6bd b725 f6bc db83 8fbc
000000f0: 771e 9bbd cdc9 72bb bddb 973c 7f16 a8bd
00000100: 9192 62bd 8834 96bc 6a61 60bd b4cc 2dbc
00000110: 3439 7fbc d7d5 5bbd 2c84 903c b27f 6fbd
00000120: 4cda 01b9 e5e7 59bd 7d6c 2ebd 3e51 9ebd
00000130: 906a 63bc dc4a 33bd 7637 8bbd 98a2 4e3b
00000140: 21c8 36bd c033 b6bd 209b 53bd 76f7 e2bc
00000150: 1243 a4bb 9c99 b43c ee87 ed3c 6ee9 febc
00000160: 6207 8dbc c12a 86bc 4ab0 b13c 7269 07bd
00000170: 92dc 89bd 2557 753d ead1 fcbc c8ec 44bb
00000180: e4b7 1bbd e5a5 9ebc 69c8 e7bc 61b1 663c
00000190: b648 f3bc 24f9 61bd 4516 753c 8d87 a0bc
000001a0: d068 2abd 968d 53bd cefb adbc e22b 76bd
000001b0: e4bb acbc 5d65 0cbd 2143 c9bd 8bad 68bd
000001c0: a952 f7bc 948d 1fba 5f34 083c 084a 23bc
000001d0: a57a 9fbc 6036 34bd c2d5 b7bc 62ee 3fbd
000001e0: 4fec 05bd 7251 b9bc 3b63 35bc 480d 91bc
000001f0: f414 95bd de7d 87bd 781b debd f3b7 d4bd

fc1.weight f4 [10, 128]
0.06940179 0.0837336 0.075515985 -0.06668152 0.0860401 -0.2297702 -0.0031533106 -0.20288445
0.047857407 0.072039925 -0.2511985 -0.09038798 0.11286858 0.020336865 -0.050367087 0.09961474
0.12743278 0.026221415 0.09001668 -0.12004346 -0.33344972 -0.034116626 0.03648411 -0.10059826
-0.042058676 -0.18508524 -0.066444665 -0.14906517 0.12271883 0.042014644 -0.104940824 -0.22540425
-0.27913567 0.04870587 -0.121152274 -0.20965703 0.073212534 -0.07380635 -0.07171997 -0.07020713
0.11592578 -0.072498746 0.011115902 -0.036444478 -0.19634849 -0.3628446 0.06362469 0.06701677
-0.08707256 -0.063190915 -0.19099037 -0.049977317 -0.017232774 -0.06405272 0.07238952 0.11436022
-0.04452039 -0.107042454 0.11372919 -0.006457903 0.20865136 -0.34805524 -0.1711836 -0.26063597
-0.022562657 -0.28265408 0.028170167 0.018672714 0.112802744 -0.13288452 0.12053814 0.12323599
0.0701216 -0.1962591 -0.13774936 -0.21800898 0.046294257 0.062285658 -0.07622671 -0.11907372
-0.09317109 -0.15482506 0.06173174 -0.22930458 0.068916224 -0.11936642 -0.0984432 0.054535348
-0.041126385 0.10166719 -0.014102546 0.15895413 0.10365656 -0.3537351 0.08464647 -0.101149306
0.0060018417 -0.07617209 -0.040207013 0.02784813 0.00062585896 -0.19562161 -0.19636987 -0.24537273
0.1053017 -0.38146797 -0.024615495 -0.2723123 -0.28299344 0.06181705 0.1070632 -0.13449164
0.04758672 0.12564816 -0.3823041 -0.035398006 -0.13028906 -0.15096873 0.012460548 -0.0917894
-0.02943736 0.095471494 -0.017485403 -0.13913514 0.05231898 -0.23169461 0.059569348 0.017018992
0.07272821 0.10829133 -0.08344691 0.04371334 -0.4795976 -0.11564287 -0.37565902 0.14735286
-0.07421807 -0.3003675 -0.1257092 -0.22979999 -0.24201466 -0.38060087 -0.060361363 -0.40457022
-0.18956867 -0.05322136 -0.15659691 0.120933406 -0.1354836 0.06897779 -0.31495968 -0.11571121
-0.016528478 0.12497115 -0.08441907 0.08314879 -0.24213296 0.16304025 -0.124135785 -0.09151015
0.15092511 -0.1407149 -0.0010192606 0.0792022 0.05381557 -0.23455325 -0.08335867 -0.27732736
-0.28771898 0.0067673596 0.13328785 0.052144047 -0.15562321 0.10746414 0.04925581 0.15659939
-0.08364098 -0.25732332 0.07382884 -0.00083404017 -0.012588592 -0.026750105 -0.19997394 -0.20860244
-0.15136053 -0.27981913 -0.1770163 -0.007672931 -0.054663844 -0.05693674 -0.18040407 -0.105431385
-0.015902324 -0.15869546 0.06065933 0.025994767 0.09802733 0.106379695 -0.15288794 -0.04869722
0.005907332 -0.16382705 0.03641422 -0.106937446 -0.12560385 0.109817974 -0.200865 0.08494082
-0.13838775 -0.11462857 -0.028432183 0.045425333 0.059582006 0.06893279 0.061040644 0.1405582
0.06269042 -0.22088933 0.036159385 -0.2534822 -0.18434897 0.16956449 -0.1361361 0.11689723
0.049859714 -0.3635074 -0.0032306404 0.13421737 -0.05842023 -0.047798503 0.047696162 0.100617446
-0.09964222 -0.092910394 -0.06396371 -0.24619943 0.095316805 0.10793176 -0.16590808 0.07442522
-0.32530922 -0.21753046 -0.046831667 0.04074347 0.01832707 -0.21904723 0.028104562 -0.11353884
-0.064438626 -0.19890091 -0.082600236 -0.3041179 0.08501464 -0.03700774 -0.047694743 -0.16472057
00000000: 8722 8e3d 867c ab3d 20a8 9a3d 5290 88bd
00000010: cb35 b03d e148 6bbe c6a7 4ebb f1c0 4fbe
00000020: 2106 443d ab89 933d 179d 80be 551d b9bd
00000030: a427 e73d 7f99 a63c b84d 4ebd d002 cc3d
00000040: bd7d 023e 4bce d63c aa5a b83d 58d9 f5bd
00000050: ecb9 aabe e0bd 0bbd 5d70 153d 7606 cebd
00000060: b845 2cbd fc86 3dbe 2414 88bd 8aa4 18be
00000070: 0354 fb3d 8c17 2c3d 37eb d6bd 5fd0 66be
00000080: dfea 8ebe ce7f 473d af1e f8bd 55b0 56be
00000090: 74f0 953d c927 97bd ebe1 92bd c1c8 8fbd
000000a0: 7f6a ed3d 397a 94bd 791f 363c ce46 15bd
000000b0: 940f 49be c4c6 b9be a94d 823d 1740 893d
000000c0: 1953 b2bd 3d6a 81bd fb92 43be 04b5 4cbd
000000d0: bf2b 8dbc 132e 83bd f540 943d b135 ea3d
000000e0: 035b 36bd 1339 dbbd d9ea e83d d19c d3bb
000000f0: b4a8 553e 4c34 b2be c14a 2fbe 1472 85be
00000100: 52d5 b8bc 09b8 90be 1fc5 e63c 85f7 983c
00000110: 2005 e73d e112 08be b3dc f63d 2763 fc3d
00000120: ea9b 8f3d 25f8 48be 2b0e 0dbe bf3d 5fbe
00000130: 0c9f 3d3d 3f1f 7f3d c01c 9cbd ecdc f3bd
00000140: 7cd0 bebd 768a 1ebe 6cda 7c3d d2ce 6abe
00000150: f323 8d3d 6276 f4bd 979c c9bd 7560 5f3d
00000160: 2474 28bd e336 d03d 5d0e 67bc dfc4 223e
00000170: e449 d43d c41c b5be 215b ad3d 5e27 cfbd
00000180: 19ab c43b 1d00 9cbd 1cb0 24bd c321 e43c
00000190: af10 243a 0851 48be 2f15 49be fd42 7bbe
000001a0: 6ba8 d73d c54f c3be 6fa6 c9bc 856c 8bbe
000001b0: 84e4 90be e033 7d3d f343 db3d 2db8 09be
000001c0: 4bea 423d e9a9 003e 5dbd c3be 80fd 10bd
000001d0: 7f6a 05be 8c97 1abe 5427 4c3c 15fc bbbd
000001e0: 9e26 f1bc 8f86 c33d 8c3d 8fbc 7179 0ebe
000001f0: 6d4c 563d 5a41 6dbe fdfe 733d 6a6b 8b3c
00000200: 87f2 943d d8c7 dd3d 37e6 aabd c20c 333d
00000210: d18d f5be 2bd6 ecbd 6156 c0be abe3 163e
00000220: a5ff 97bd c5c9 99be eab9 00be b050 6bbe
00000230: b1d2 77be 1ede c2be 7a3d 77bd d423 cfbe
00000240: 4a1e 42be a4fe 59bd f15a 20be efab f73d
00000250: 36bc 0abe 3a44 8d3d 6542 a1be 00fa ecbd
00000260: bb66 87bc e0f0 ff3d e8e3 acbd ea49 aa3d
00000270: b4f1 77be 06f4 263e e73a febd ac69 bbbd
00000280: 1d8c 1a3e 9117 10be b698 85ba c334 a23d
00000290: b76d 5c3d ba2e 70be f3b7 aabd dafd 8dbe
000002a0: e74f 93be bac0 dd3b 9c7c 083e ff94 553d
000002b0: b15b 1fbe 2916 dc3d 76c0 493d 975b 203e
000002c0: f64b abbd e2bf 83be 9333 973d 7da3 5aba
000002d0: 6240 4ebc 0923 dbbc f8c5 4cbe e19b 55be
000002e0: 41fe 1abe 7444 8fbe c343 35be 366d fbbb
000002f0: 32e7 5fbd 8036 69bd d8bb 38be 69ec d7bd
00000300: 9745 82bc 1081 22be eb75 783d faf2 d43c
00000310: 8ec2 c83d 99dd d93d a88e 1cbe bc76 47bd
00000320: 4b92 c13b 47c2 27be 1427 153d 0502 dbbd
00000330: 4c9e 00be 3fe8 e03d 8eaf 4dbe 74f5 ad3d
00000340: 85b5 0dbe 62c2 eabd 9cea e8bc ea0f 3a3d
00000350: 430c 743d a22c 8d3d c105 7a3d 7dee 0f3e
00000360: d663 803d d030 62be dd1b 143d 6bc8 81be
00000370: fac5 3cbe 50a2 2d3e 4367 0bbe d167 ef3d
00000380: b339 4c3d a41d babe 27b9 53bb 4770 093e
00000390: 0d4a 6fbd 5dc8 43bd 0d5d 433d 8510 ce3d
000003a0: 3811 ccbd ce47 bebd 68ff 82bd b41b 7cbe
000003b0: 7535 c33d 540b dd3d cfe3 29be 406c 983d
000003c0: ee8e a6be 4ec0 5ebe 90d2 3fbd a0e2 263d
000003d0: a722 963c eb4d 60be 8a3b e63c 0d87 e8bd
000003e0: 66f8 83bd aeac 4bbe 502a a9bd 57b5 9bbe
000003f0: 281c ae3d 6e95 17bd 905b 43bd 82ac 28be

fc1.bias f4 [10]
0.21324404 0.3931323 -0.3155682 -0.039143126 0.06466892 -0.118978016 -0.060834777 0.15804899
-0.061809395 -0.2428006
00000000: a55c 5a3e a348 c93e 2892 a1be 8b54 20bd
00000010: 2471 843d bfaa f3bd e32d 79bd 98d7 213e
00000020: d92b 7dbd b8a0 78be
