models/model.pth (torch, 378536 bytes, 8 tensors)

conv1.weight f4 [32, 1, 3, 3]
000000 90 77 77 3d c9 a7 a7 3e 35 88 b2 3b 93 b9 c9 be
       0.060416758 0.32745197 0.005448366 -0.39399394
000010 c8 8c 24 bd a0 9f 43 3e 9a 65 8e be 9e 3c 94 be
       -0.040173322 0.19103861 -0.2781189 -0.28952497
000020 ee e8 be 3e dc d3 dd 3e 33 be 29 be ef b9 3d bf
       0.37287086 0.43325698 -0.16576461 -0.7411184
000030 2d 4e bf 3d 87 8d a2 be d2 a7 17 bf 02 3d 9b bd
       0.09341083 -0.31748602 -0.5924045 -0.07579996
000040 d9 32 63 bf 5a cb 3b be 72 b8 9f be 30 6c a5 bd
       -0.8874946 -0.18339291 -0.31195408 -0.08077276
000050 67 a1 bc bd d0 85 91 3d 62 6e 30 be 47 69 71 3e
       -0.092104726 0.07105601 -0.17229608 0.23575316
000060 11 e9 8c 3c 12 0b 98 3e 99 25 de ba 66 ef a1 3d
       0.017200978 0.29695946 -0.0016948461 0.0790699
000070 a8 58 54 3e 25 e7 07 3e 2b d2 b7 3d c3 94 88 3e
       0.20736945 0.13271768 0.08975633 0.26675996
000080 f2 2c 74 be 07 f4 6e 3d a1 7c e7 3d 9b 5a d7 be
       -0.2384527 0.05833819 0.11303068 -0.42061314
000090 a3 c1 25 3d 3c 21 9e 3d ac d3 88 be c9 4b 30 3e
       0.04046787 0.07721183 -0.26723993 0.1721641
0000a0 3a a3 d1 3d 7b 56 87 3e c6 bc 37 3e 07 24 f7 bd
       0.10236211 0.26433167 0.17943105 -0.120674185
0000b0 db d3 0c 3e 0f 56 d8 be 5e 17 ab bc 03 b0 96 3e
       0.13752691 -0.42253157 -0.020885166 0.2943116
0000c0 27 65 13 be 13 27 b7 3e 18 9b 20 be 44 33 fe 3d
       -0.14394055 0.35772 -0.15684164 0.12412122
0000d0 99 96 bc 3e 2f 01 ef bd 87 cf 89 3e 0d 13 be 3e
       0.36833647 -0.11670148 0.26916143 0.3712391
0000e0 98 86 1a be 44 2d d1 3e 68 41 88 be 3c 96 b7 be
       -0.15090406 0.40854847 -0.266124 -0.35856807
0000f0 19 1d 88 3d 95 df f1 3d 29 4c f9 be ff dc c8 bc
       0.06646175 0.11810223 -0.48690918 -0.024519442
000100 ad f9 5f be 58 b5 95 3e 91 c6 ad bc ef a2 b9 3d
       -0.21872588 0.29239917 -0.021212848 0.0906428
000110 95 7e 94 3e f2 c0 c7 3b b8 37 15 3e d1 2f 9d be
       0.29002824 0.006095999 0.14572036 -0.30700544
000120 c5 1d 4b be a0 84 e6 3d 11 0d d3 3d ee 7d 77 be
       -0.19835575 0.11255765 0.103052266 -0.24169132
000130 4e bf 70 3d 10 3d e0 3d 4f e7 f1 bd ae 16 06 3d
       0.058776192 0.10949147 -0.11811697 0.032736473
000140 de f7 0f 3e c1 0a a4 be f6 6c 0d bf da a8 0b bf
       0.14059398 -0.32039455 -0.55244386 -0.5455452
000150 81 97 85 bd 10 5d 63 bd 98 a5 f2 bd f8 50 04 3f
       -0.06523038 -0.055508673 -0.11847991 0.5168605
000160 4c 2d 15 3f 02 1e d2 3e 96 1a c1 3e 28 15 18 be
       0.5827224 0.4103852 0.37715596 -0.1485182
000170 64 f9 af be 1f 21 82 3e 3b d9 b0 3e 26 a7 43 bf
       -0.34369957 0.25415894 0.34540734 -0.76426923
000180 1d 59 92 3e 8a db 73 3d 9a b5 1f bf 20 a9 3b 3e
       0.28583613 0.05953554 -0.62386477 0.18326235
000190 9d 2c c5 be a0 2a 0b bf d2 43 bc 3e cb be 8b 3e
       -0.385106 -0.54361916 0.36770493 0.27294
0001a0 99 fc 9f be 2c ba 8e bd e7 ab f0 3e 22 97 b1 3d
       -0.31247404 -0.06969103 0.4700615 0.086714044
0001b0 de 6e d4 be 65 57 03 bf 68 03 22 3f 4e 42 c6 be
       -0.41490835 -0.5130523 0.6328645 -0.3872246
0001c0 82 2b 2d be 88 34 eb 3c 53 24 d0 be 0e 8a a6 be
       -0.16911128 0.028711572 -0.40652713 -0.32527202
0001d0 d1 ab a2 bc f3 ad a0 3e 9e e4 f9 3d 46 59 b3 3d
       -0.01985732 0.31382713 0.122018084 0.08757262
0001e0 0a c1 53 be 67 f3 7d 3e 5f 48 76 3e af 17 28 bf
       -0.20679107 0.24799882 0.24051045 -0.6566114
0001f0 44 9b f1 be 63 b2 10 bf 63 6b 25 be 08 cd 92 bd
       -0.4718877 -0.56522197 -0.16154246 -0.07168013
000200 33 1f 56 3d 8f 3a d8 bd 29 8e 04 3e 49 dc 93 bb
       0.052275848 -0.10558044 0.12944855 -0.004512344
000210 55 d3 47 3d 1d fa c7 3e 40 84 ef be cf b2 4f 3e
       0.048785526 0.3905801 -0.46780586 0.20283054
000220 df 1b 61 3e 73 a2 85 3e 58 b5 31 bd f2 98 12 be
       0.21983288 0.261005 -0.043385834 -0.14316157
000230 02 8d 24 3e c5 a1 cc 3c 07 d9 7f 3d 6f 49 86 3e
       0.16069415 0.024979481 0.062462833 0.262279
000240 e6 9a b8 be 37 2c 4a 3e 3f 69 21 3e e4 43 10 be
       -0.36055678 0.19743429 0.15762804 -0.14088398
000250 4a fb 73 3e 94 0f 66 3d 8a 90 7a 3e 9b 64 b9 3c
       0.23826328 0.0561672 0.244692 0.02263098
000260 74 3e 8c be 85 a0 f8 3c 93 af c4 3d ef ad a4 be
       -0.27391398 0.03034998 0.096038006 -0.3216395
000270 de 66 d4 bc dd 0a 88 be 7c b7 b3 3c 51 d1 c3 3d
       -0.025927957 -0.26570788 0.021938078 0.09561408
000280 77 2e 56 3e eb 1b 88 3e 93 80 51 3e ce 37 e2 be
       0.20916162 0.265838 0.20459203 -0.441832
000290 a8 a9 97 be 3f 37 eb be b3 0a d9 be fb 87 b8 3e
       -0.29621625 -0.45940587 -0.42390975 0.36041245
0002a0 ca e7 40 be 8a 7f 54 3e 76 b7 b3 3e 0e c4 ac be
       -0.1883842 0.20751777 0.35100907 -0.33743328
0002b0 2b 41 32 be 62 b9 d3 3e b6 d2 99 be b9 ac e1 bd
       -0.17407672 0.41352373 -0.30043572 -0.11019272
0002c0 bd ea c1 3e 97 19 c0 be 1c b7 29 3e fb 8f 10 3e
       0.37874404 -0.37519524 0.16573757 0.14117424
0002d0 2e f5 88 3e a9 fc 15 3e 20 ec ad 3e d2 47 1d bd
       0.26749557 0.14647163 0.33969212 -0.03839857
0002e0 d6 c4 e1 3e 61 b7 8b be 79 97 72 be 0e 3e e3 be
       0.44095486 -0.27288345 -0.23690595 -0.4438328
0002f0 75 66 15 bf b5 39 e2 3c 7c 8a cb be 65 bc 1a be
       -0.5835946 0.027615407 -0.39754093 -0.1511093
000300 49 3f 56 3e 5a ee ac be e1 de ec be 6c 4f 1f 3f
       0.20922579 -0.33775598 -0.46263793 0.62230563
000310 56 cd 13 bd 74 df 5f 3d df 60 07 3e 7f 21 4d be
       -0.036084495 0.05465646 0.13220547 -0.20032309
000320 d1 8d 11 3e 71 30 b6 be d3 bd 2f be 04 7b 5e 3e
       0.14214255 -0.35583833 -0.17162256 0.21726614
000330 af 01 26 bc fc 89 b3 3d b9 3b 6a 3e ca dc 69 be
       -0.010132237 0.08766553 0.22874345 -0.2283813
000340 22 31 16 bf 14 c7 d7 be 4b 91 c4 be 59 a0 96 3e
       -0.5866872 -0.42144072 -0.383921 0.2941921
000350 92 77 b0 3e 2d e5 d0 bd d5 d0 d8 3d 14 64 60 bc
       0.34466225 -0.10199962 0.105867065 -0.0136957355
000360 52 0d 78 be 1f 46 41 be 80 f7 aa be d0 51 0d bd
       -0.24223831 -0.18874405 -0.33391953 -0.03450185
000370 9d 3e 5e 3e 76 59 69 3e bf 47 54 bc 1d 6e e7 bd
       0.21703573 0.22788033 -0.012956559 -0.11300299
000380 93 9d 5e 3e 8b fd a5 bd a7 90 72 3e 67 9e dd be
       0.21739797 -0.08105 0.23687993 -0.43284914
000390 9f 0e cf bd 58 75 a3 3e f7 38 e4 bd ae c0 ec bd
       -0.101102106 0.31925464 -0.11143678 -0.11560188
0003a0 f8 1d ae 3e 7a 35 03 be 7f ba 0e 3e 4a 77 c3 3e
       0.3400724 -0.12813368 0.1393833 0.38176948
0003b0 24 e5 8c 3e 9a 55 e7 3d 75 0d a2 be c8 92 29 be
       0.2751857 0.11295624 -0.31650892 -0.16559899
0003c0 05 5f 35 be 1e 7e ac 3c 1e c0 e9 be 79 00 07 3e
       -0.17712028 0.021056231 -0.45654386 0.13183774
0003d0 c5 54 41 3d 1f ec 0f bf e5 a1 37 3e 50 6b b1 bc
       0.047199983 -0.5621967 0.17932852 -0.021657616
0003e0 af 9b 6d be bd a7 a1 be 6f dd 60 3e 78 e2 ce 3e
       -0.2320392 -0.31573287 0.2195947 0.40407157
0003f0 cb 43 5f 3e a3 69 18 be 61 0d 25 be b7 6c 33 3e
       0.21803205 -0.14884047 -0.16118385 0.1752194

conv1.bias f4 [32]
000000 c9 5b ff bd cc 76 07 3f b4 d6 39 be 15 93 b7 be
       -0.124686785 0.52915645 -0.18148309 -0.35854402
000010 4f 1e c2 be 8e ee c1 be d3 6c 56 be 67 5f a7 be
       -0.3791375 -0.37877315 -0.2093995 -0.32689974
000020 52 6e 2f bd c2 e6 b7 bd 7f 62 fb bd fd 2a 26 be
       -0.04282982 -0.089795604 -0.12274646 -0.16227336
000030 0f 89 30 3e d9 81 1b 3e f5 af 4f bd 22 3e c2 be
       0.17239784 0.15186252 -0.050704915 -0.3793803
000040 49 1b bc be 24 36 80 bd 0f 81 93 bd 2d 28 04 be
       -0.36739567 -0.062603265 -0.0720235 -0.12905951
000050 c6 1b ab bd 53 07 a1 3c e0 5d 73 be b7 5b 9e 3d
       -0.08354907 0.019656813 -0.23766279 0.07732337
000060 65 cb f3 bd ce d6 85 bd c9 f0 f0 bd 14 3f 24 be
       -0.11904029 -0.06535111 -0.11764676 -0.16039687
000070 ff c2 d6 bd cd a4 80 be 76 bc a5 be f4 c7 14 bc
       -0.10486411 -0.25125733 -0.32370347 -0.009080876

conv2.weight f4 [64, 32, 3, 3]
000000 f1 46 15 be f1 a5 60 bb 2f da bb bd dd 73 a2 3a
       -0.14577843 -0.0034278596 -0.091724746 0.0012394149
000010 83 b1 00 bc 64 da 6a 3d 43 ae cb bd 91 ef 18 3d
       -0.007854822 0.05733718 -0.09945347 0.037337843
000020 8e aa 83 3d a1 70 09 bc 25 e6 17 be b5 53 c1 3d
       0.06429015 -0.008388669 -0.14833887 0.09439794
000030 ff 90 17 be 3d cf df bc 21 22 ab 3d b8 17 67 bd
       -0.14801405 -0.027320499 0.08356119 -0.056419104
000040 b1 7b 77 3d 39 78 28 3c 9a 16 72 bb bc 13 4b 3d
       0.060420696 0.01028257 -0.003693974 0.049579367
000050 cf 09 6e bc 93 25 2d ba 1d cd ff 3d a0 6c a3 bd
       -0.014528706 -0.0006605025 0.12490294 -0.07979703
000060 cc fd f9 3d ab 59 3f 3d 8a f3 10 bd 00 32 04 be
       0.12206611 0.046716373 -0.035388507 -0.12909698
000070 8f 3e 36 bd 02 fe 4f bc 43 b9 f7 3b 20 f8 5a bb
       -0.044493254 -0.0126948375 0.0075599267 -0.0033412054
000080 cd 21 db bc ba 9f 1f 3c a3 f9 48 bc 36 14 9a bd
       -0.026749516 0.009742672 -0.012266549 -0.07523386
000090 77 1b 00 bd 57 7a 6c bd 0f c6 ec bc c7 dd 37 3d
       -0.031276193 -0.05773386 -0.028903035 0.044889238
0000a0 b4 a1 c7 bd d3 db ba bd 6e 6c 2f bd bc fb ca bd
       -0.09747639 -0.091239594 -0.042828016 -0.09911296
0000b0 10 5d 94 bd 84 b4 34 be a9 46 d8 3d 4c cc f0 3d
       -0.07244313 -0.17646986 0.10560352 0.117577165
0000c0 a8 24 7f 3d 03 ce 1f 3e 1c 46 b0 3c bc c5 3b 3e
       0.062290817 0.15605931 0.021517806 0.18337148
0000d0 dd 52 33 3e 0c 5b 0a be 8d 97 05 be 94 d1 2a bd
       0.17512079 -0.13511294 -0.13046093 -0.041703776
0000e0 4f 83 44 3d b3 34 04 be 1a 77 7a 3d 9a d4 d6 3c
       0.047976788 -0.12910728 0.06114874 0.026224423
0000f0 36 32 1b 3e 8d af da 3d d2 3a 87 3d 0c f9 20 be
       0.15155873 0.10678015 0.06603016 -0.15720004
000100 4a e8 84 3b b5 8c ce 3c 62 36 8e 3c 46 95 e6 3d
       0.0040560113 0.025213579 0.017359916 0.112589404
000110 b8 0e ab bd f1 d0 d2 bd 4d a1 ad 3c 1a 81 c0 bc
       -0.08352417 -0.10293759 0.021195078 -0.02349906
000120 80 d0 42 be 38 7d aa 3d c7 0d 61 3d b2 8a 01 bc
       -0.19024849 0.08324665 0.05494478 -0.007906603
000130 23 f1 54 bc 5d 45 9c bb ad 60 4f bc 92 c0 d3 bc
       -0.012996945 -0.004769011 -0.012657327 -0.02584866
000140 4e 26 3b bd 4b 67 be 3d 88 c7 1d 3b ac 1e a9 bd
       -0.045690827 0.09297045 0.0024075229 -0.08257803
000150 ec bc 91 3b 24 2f f1 bd 4b 8c a4 be 8d 7d 64 bd
       0.00444757 -0.117765695 -0.32138285 -0.055783797
000160 cc 87 af be 08 1d 94 bd 2a 4e 1b 3d 63 95 a2 3c
       -0.34283292 -0.072321 0.03791634 0.019846624
000170 e0 8c c4 3c a2 fc 81 bd da 52 9c 3d 27 7b 81 3d
       0.023992956 -0.06347014 0.0763299 0.063223176
000180 53 86 48 3e ac 58 4c 3e de bd a8 3d bf 3d 36 3e
       0.1958249 0.199557 0.08239339 0.17796992
000190 03 6c 4f be 0b d7 2b be 1d cb 3b bd a2 ce 90 be
       -0.20256047 -0.16781251 -0.045848 -0.28282648
0001a0 3c 74 95 3c f7 ae 18 be 48 89 8d 3c b5 e5 4e 3d
       0.018243901 -0.14910494 0.017277375 0.050512034
0001b0 db 15 d0 bd 59 4b 9f 3d ab f0 50 be 1e 8d 14 be
       -0.101604186 0.07778043 -0.20404308 -0.14506957
0001c0 d1 fa 92 bd e4 d3 9d bd 79 ee fa bd 77 79 89 3d
       -0.07176746 -0.077064306 -0.12252516 0.06712621
0001d0 b4 36 ad 3d 32 4f 80 bd 88 d9 c0 be d4 cc 15 be
       0.084576994 -0.06265105 -0.37665963 -0.14628917
0001e0 00 f1 2f 3d 0e 67 15 be 4f 9a 37 bd 93 0d 06 be
       0.042954445 -0.14590093 -0.044824895 -0.13091116
0001f0 d9 b7 0f be d1 6f b5 bd 7c 55 ad 3a 81 1a 38 3e
       -0.14034976 -0.08859218 0.0013224329 0.1797886
000200 2c e0 f0 3d d3 77 22 3e c1 f7 b9 3d 3d e1 d0 3d
       0.117615074 0.15866022 0.090804584 0.10199211
000210 71 3d 0d 3e 82 c3 35 3e df 0e d8 bc 2a e3 33 be
       0.1379297 0.17750362 -0.026374279 -0.17567125
000220 bc 66 cb bd e7 1a 92 3b 6b 6d 05 bd d2 1e c3 bb
       -0.099317044 0.0044587734 -0.032575052 -0.005954602
000230 44 a3 03 be 13 16 b9 bd 59 08 07 bd 9c b1 f5 bd
       -0.1285525 -0.090374134 -0.032966945 -0.11996767
000240 15 d1 63 be c4 8d c9 3d 73 25 f8 3d 3f 22 b5 3c
       -0.22247727 0.09841493 0.12116518 0.022111056
000250 72 e8 81 3d b8 05 b4 bd bd d2 85 3c bb 64 4e 3d
       0.063431635 -0.08790153 0.01633584 0.050389033
000260 e8 70 0a be fe 7c 9d 3d cc 5f 31 bb 6a eb f1 bd
       -0.13519633 0.07689856 -0.0027065156 -0.1181248
000270 ba b7 85 3c 37 5c 6c bd 56 e0 c3 bd 40 02 ec bc
       0.01632296 -0.05770513 -0.09564273 -0.028809667
000280 b3 4e 3e ba 3f 4d 9f 3b 6f e0 af 3c f8 cc 08 3e
       -0.0007259652 0.0048615034 0.021469323 0.1335944
000290 35 85 1c bd fd d9 f9 bc 01 02 57 3d 91 16 16 be
       -0.038212974 -0.030499453 0.052492145 -0.14657046
0002a0 ba 3f 17 bc 73 44 82 3e 6e c2 36 bd 65 20 13 be
       -0.009231502 0.25442848 -0.044619016 -0.14367826
0002b0 5d 9f 08 3e d9 29 60 3d 05 33 73 bd 0e 27 cc 3d
       0.13342042 0.05472741 -0.059374828 0.099683866
0002c0 09 d2 bc bc 6e 4a dd 3b 61 da 4b 3e 99 f5 e4 3d
       -0.023049371 0.0067532575 0.19907524 0.111796565
0002d0 c7 15 ff bd 91 df 8c 3c 31 42 ff 3d 07 a5 89 3d
       -0.124553256 0.017196449 0.12463797 0.067209296
0002e0 d9 8f 52 bc 7c fe e6 bc ac 66 a6 bd b3 9d 2d bd
       -0.012851679 -0.02819752 -0.08125052 -0.04238672
0002f0 1c 0a 13 be 87 cb 20 3e 74 82 12 bd 2a bb a9 bd
       -0.14359325 0.1570264 -0.03576894 -0.08287652
000300 56 c9 b6 bd 62 ef 82 be c6 54 da 3c 6e 0c db bd
       -0.089251205 -0.2557326 0.026651751 -0.1069573
000310 3b 75 8a 3d 0a a5 2b 3e 21 26 f6 bc b5 e0 b6 3d
       0.06760641 0.16762176 -0.030047478 0.08929578
000320 0b 1a 28 bd 5e 9e a1 3c 1b b0 c2 bc 2b 09 b1 bd
       -0.04104046 0.019728836 -0.023765614 -0.08644327
000330 4e 0b b3 bc 45 34 b2 3d ea cb a9 3d 06 af 82 bd
       -0.021855976 0.08701376 0.08290847 -0.06381039
000340 01 9b 0c 3e 51 a0 d3 3c 96 ad 99 3c 43 98 c9 3c
       0.13731004 0.02583328 0.01875953 0.024608737
000350 75 66 b2 bc 29 63 24 bd c8 f1 69 bd 2a be 12 be
       -0.021777371 -0.04013363 -0.057115346 -0.14330354
000360 36 60 b2 bd 92 70 9a 3d 5a 80 15 bd 3c 6b b5 bb
       -0.08709757 0.07541002 -0.03649936 -0.005536465
000370 37 e0 9a 3d e6 ae ab bc b9 e8 ff 3c d9 60 e8 3c
       0.07562297 -0.020957422 0.0312389 0.028366493
000380 3b f3 71 bd 9f 61 81 bd a7 23 8b bd a0 c3 9a bd
       -0.059069853 -0.06317448 -0.067939095 -0.07556844
000390 1d cb 55 3b 0c 60 18 3d 43 59 b1 3d 4a 7c e1 3c
       0.0032622286 0.037200972 0.086596034 0.027525086
0003a0 94 33 1d 3e b0 ba 8f 3c 33 c0 3b be f6 28 e3 bd
       0.15351707 0.017545074 -0.18335037 -0.11091797
0003b0 fc af 04 3d 44 61 da 39 bd 6c 87 3c f6 1f 84 3d
       0.032394394 0.0004165267 0.016531343 0.064514086
0003c0 19 77 23 3d 0a 29 70 39 cd 25 07 3c 17 c5 e0 3d
       0.039908502 0.00022903472 0.0082487585 0.10975092
0003d0 b3 9d 3b 3d 08 1c 08 be f2 f3 2d 3c 5b 94 30 be
       0.04580469 -0.13291943 0.010617243 -0.17244093
0003e0 c1 12 53 3c 54 90 fd bd f9 48 5e 3d b9 8a 0c 3c
       0.012882889 -0.12381044 0.05426881 0.008577996
0003f0 f2 a8 cf 3d 43 6e 04 bd d8 e8 1a bd 58 8e a9 bc
       0.10139646 -0.032331716 -0.037819713 -0.020697758

conv2.bias f4 [64]
000000 92 b7 ac bd c8 c4 f3 bd 31 c2 ac bd bd 0e 52 3d
       -0.08433451 -0.119027674 -0.084354766 0.051283587
000010 5e a5 91 bd 18 1a ee bd 30 26 11 bd f1 00 d9 bc
       -0.071116194 -0.11626071 -0.03543681 -0.026489707
000020 7b 6e 89 3c 4a 79 b6 bd 2b 71 6a bd 97 78 b7 bd
       0.016776314 -0.08909853 -0.05723683 -0.089585476
000030 23 f1 80 bc 1c cc 8a bd b9 65 e9 bd ad 68 09 3c
       -0.015739983 -0.06777212 -0.11396355 0.008386773
000040 6a 25 61 bd 39 64 1a bd ce be 9c bd 0f fc a8 bd
       -0.05496732 -0.037693236 -0.076535806 -0.08251201
000050 6b 3b be bd 6b 35 54 bc 6f d2 7a bc c1 56 6c ba
       -0.09288677 -0.012952189 -0.01530896 -0.0009015613
000060 15 c7 84 bd 3d 20 ac bc 0b 86 de bc 4d 5a 15 be
       -0.064832844 -0.021011466 -0.027163526 -0.14585228
000070 30 e0 c7 bb a1 c3 99 bd b8 b3 ae bc 5b 25 b1 39
       -0.0060997233 -0.075080164 -0.021325931 0.00033787903
000080 1a fa 07 bd 62 c1 83 bd de 2c 94 bd ca 84 df bd
       -0.0331975 -0.06433369 -0.0723512 -0.109139994
000090 f8 03 4e bc fd 04 9a bd fc 06 fd bc 15 92 15 be
       -0.012574188 -0.07520483 -0.03088712 -0.14606507
0000a0 e3 ae 25 bd 6d 5f dc bc b7 ad 6c bd 70 55 27 bd
       -0.040449988 -0.026900971 -0.057782855 -0.040852964
0000b0 5d 80 8f bc b7 b7 b9 bc 71 59 f9 3c 5c 33 eb bd
       -0.017517263 -0.02267061 0.030438157 -0.114844054
0000c0 e3 b6 ce bd 63 3a 30 3c 17 06 60 3c c2 af 1a 3c
       -0.100934766 0.010756108 0.013673327 0.009441318
0000d0 dd 38 ef bc 44 12 06 3d 07 ac 10 bd 80 bd 87 39
       -0.02920192 0.032732263 -0.035320308 0.00025890395
0000e0 4c aa f5 3b 4f c2 e6 bd 96 28 48 bd 55 7b 7b 3c
       0.0074971076 -0.1126753 -0.04886683 0.015349229
0000f0 ae 7f 8d bd 6b 5b 5c bd 87 1c 2e bc 12 6e 24 bd
       -0.069091186 -0.05379812 -0.010626919 -0.040144034

conv3.weight f4 [128, 64, 3, 3]
000000 59 35 89 bd 05 45 97 be c8 f2 24 bc 7b 2d 0b 3e
       -0.066996284 -0.29544845 -0.010067649 0.13591568
000010 b6 7a 86 bd 8e 03 3f 3d a4 dc fe bc 01 1c 83 3c
       -0.06566374 0.04663425 -0.031111069 0.016004564
000020 26 11 98 3d 91 e0 9f bd 67 d0 03 be 3a ac bd bd
       0.07425146 -0.078065045 -0.12872468 -0.09261365
000030 7e db 6c 3d 4b c2 b8 3d ab 8b 89 3c c8 3a 98 bb
       0.05782651 0.090214334 0.016790232 -0.004645679
000040 ab fe d0 bd b8 88 3e be cb 78 15 3d 5d 9b 15 be
       -0.10204824 -0.18606842 0.03649215 -0.14610048
000050 7a f9 34 be 72 1c 8d bd 43 8d 23 be 73 6b bd bc
       -0.17673293 -0.06890191 -0.15971856 -0.023122525
000060 0d 4f 94 bb 2f 8e 61 bd cd 24 01 be 4b 78 a0 bc
       -0.004526025 -0.055067237 -0.12611695 -0.01958861
000070 83 82 71 3d 88 dc 11 3e ad 84 5c bd 48 53 2d 3d
       0.058962356 0.14244282 -0.053837467 0.04231575
000080 ae c2 0a 3e 6a a0 ef 3c 3a fd 28 bd a8 64 b5 3b
       0.13550827 0.029251296 -0.04125712 0.005535681
000090 aa cd c0 3d 24 73 2c be 51 5d 1f be d0 16 f4 bd
       0.09414227 -0.16840798 -0.15562941 -0.11918414
0000a0 f4 be cb bd e7 0d 61 3d fa b6 76 bd 3c 83 b6 bd
       -0.09948531 0.0549449 -0.060233094 -0.0891175
0000b0 c8 1b c3 b9 8b 60 30 3e 1e 67 c8 3d 2b 01 b0 3d
       -0.00037213997 0.17224328 0.09785293 0.08593973
0000c0 fd e1 44 3d 9f 17 76 bc 99 8d be 3b 3e 60 1e be
       0.04806708 -0.01502028 0.0058152196 -0.15466401
0000d0 63 74 dc bd e0 65 cd bd 81 18 25 be 33 37 62 be
       -0.107643865 -0.10029197 -0.16122629 -0.2209137
0000e0 8c 86 91 bd b0 05 d1 bd 71 f0 49 3d 7b ff 75 bc
       -0.07105741 -0.10206163 0.04930157 -0.015014525
0000f0 ba 5d 5e be 2d 70 a9 bd bb ac 34 be d3 a4 b6 bc
       -0.21715441 -0.08273349 -0.17644016 -0.022295391
000100 1f 56 37 3c e9 c6 f3 bc 2c b2 ea 3c 52 25 b8 bd
       0.011189966 -0.029757934 0.028649412 -0.08991493
000110 34 6e cc 3c 58 57 2b 3e 82 ac 68 3d f0 1a 32 3e
       0.024954893 0.16732538 0.05680514 0.17393088
000120 cc 16 03 3d 46 92 89 bc d8 81 26 3d c0 34 06 bb
       0.032004163 -0.016793381 0.040651172 -0.0020478219
000130 db 8e 27 3d 60 ad 36 bc b0 99 41 bc a2 95 10 bd
       0.040907722 -0.011149734 -0.011816427 -0.03529895
000140 f0 57 0e bd 60 ce bd bc e5 d8 eb bd 87 93 11 be
       -0.034751832 -0.023169696 -0.11515979 -0.14216433
000150 53 d9 84 bd 09 c0 f8 3c a8 81 af bd 43 95 ac 3d
       -0.06486764 0.030365007 -0.08569652 0.08426907
000160 8c 80 20 bd ff 88 35 3c f2 1e e4 bc a5 62 fd bc
       -0.03918509 0.011080026 -0.027846787 -0.030930826
000170 bd 7e 21 bd 1b 14 4b bd 92 6b 93 bd d2 d1 9f bd
       -0.039427508 -0.04957972 -0.07198252 -0.07803692
000180 d0 87 47 bc 95 2f 9b bd c3 5e db bc cd df b8 3d
       -0.012178376 -0.07577435 -0.026778584 0.090270616
000190 59 cb 6e bc 9e 17 8a bd 0c dc 94 bd 73 aa 2e 3d
       -0.014574849 -0.06742786 -0.07268533 0.04264302
0001a0 be ff 0b 3e 65 38 2c bc e3 69 9b bc c4 ca a1 bd
       0.13671777 -0.010511492 -0.01897139 -0.079000026
0001b0 58 7b 33 bd d3 d3 9e bc 0e ed 05 bd 2d 48 1a be
       -0.0438188 -0.019388115 -0.032696776 -0.15066595
0001c0 db a4 bd bc e4 05 cb 3d aa ca 10 3d 8a 56 6a 3c
       -0.023149898 0.09913233 0.035349526 0.014302859
0001d0 0b e7 ac 3d 20 b8 03 3c 75 7b ec bc b6 da 06 3d
       0.084425054 0.008039504 -0.028867463 0.032923423
0001e0 f3 85 5f bb 10 d3 2f bb 24 cf f0 3b e1 64 c2 3c
       -0.003410694 -0.0026828684 0.007348912 0.023729743
0001f0 62 af 03 bd eb 39 a9 bc 35 fa 69 bd ac 53 d1 bd
       -0.03214968 -0.0206575 -0.05712338 -0.10221037
000200 2c b8 78 be 11 41 0f be dd f9 28 be 09 18 98 bd
       -0.24289006 -0.13989665 -0.16501565 -0.07426459
000210 7d 18 0f bd 3d 43 e3 bd 1a 66 c9 3d e8 58 27 3d
       -0.034935463 -0.11096809 0.098339275 0.040856272
000220 b5 89 38 be 8f 36 25 be 95 d2 60 3d 5c b1 f6 3c
       -0.18021281 -0.16134094 0.054888327 0.030113868
000230 d6 b2 dc bd 48 af 93 bd 90 49 fe bd 3e ac 17 be
       -0.10776298 -0.072111666 -0.12416375 -0.14811799
000240 c2 68 6b bd ce 26 86 bd fd 87 d6 3c 61 14 29 bd
       -0.05747295 -0.0655037 0.026187891 -0.0412792
000250 a4 7b 17 bb 6b b9 73 bd 66 b9 de 3d a1 8f 31 3e
       -0.0023114467 -0.059503 0.10875206 0.17339946
000260 8a 12 59 3d 07 00 bf bc 07 b5 f9 bc 1a 76 4e bc
       0.052996196 -0.023315443 -0.030481828 -0.0126014
000270 6a ca 11 3d 38 92 b9 3c 49 2e c0 3c a2 c4 78 3c
       0.035593428 0.02265273 0.02345957 0.0151836
000280 4a 15 69 3d e1 c5 b5 3d 4a 4f e9 bc ef 5a e5 b9
       0.05690507 0.08875633 -0.02848019 -0.00043746034
000290 00 07 0a bc c1 21 18 bc d0 d7 46 bc b3 fc 84 bd
       -0.0084245205 -0.009285391 -0.012136415 -0.06493511
0002a0 b3 cc 1e bd 9d 95 66 bc 2a 66 08 bd 5e 03 ff bc
       -0.038769435 -0.0140737565 -0.033300556 -0.031129535
0002b0 e8 e4 c5 3c 3a e2 41 3d e3 d1 bf bc d6 7d 86 3c
       0.024157003 0.047334887 -0.023415511 0.016417425
0002c0 7d 56 0d ba 9f ce b8 3b 6b 2f 5f bc c3 30 91 bc
       -0.0005391611 0.0056398655 -0.013622145 -0.017723447
0002d0 4c 9a 2b 3e 0f 2e 28 bd 03 7b 76 bd 26 a6 57 bd
       0.16758078 -0.04105955 -0.060175907 -0.052648686
0002e0 44 49 41 3e 2a 3c e3 3d 93 ec 3c 3d 04 a4 f5 3d
       0.18875605 0.1109546 0.046124052 0.11994174
0002f0 23 29 41 3e 9c 97 19 bd 80 71 35 bd 26 b3 8a 3d
       0.18863349 -0.0374981 -0.044297695 0.06772451
000300 4e 63 83 3c c5 1c 37 3b 4a 59 11 3e 89 32 fe 3b
       0.016038563 0.0027940732 0.14194217 0.007757489
000310 2d bf 2d 3e cf 90 0d 3e 44 58 0e bd ea e6 63 bc
       0.16967459 0.13824771 -0.034752145 -0.013910035
000320 2a 1d a1 3c 3c 7d 1d bd 44 44 57 3d 36 72 c3 bb
       0.019667227 -0.03844951 0.052555338 -0.0059645427
000330 75 95 f1 3c 98 1b fe ba b7 cf 6b 3c 4e e7 ee bd
       0.029490212 -0.0019386886 0.014392785 -0.116652116
000340 15 7d 0a be 1d c3 18 3d f9 ba 0f bd 0f f1 2d bd
       -0.13524278 0.03729545 -0.03509042 -0.04246622
000350 a4 06 6d bc 50 cb 75 3d 40 0b 67 3d 07 94 59 3c
       -0.014466915 0.060008347 0.056407213 0.013279921
000360 77 6d 85 3c da 37 4d bc 45 ec 39 3d ce 70 0d ba
       0.016287548 -0.012525523 0.04539134 -0.00053955324
000370 9e 56 53 bd 46 39 30 3d db ee df bc 07 02 d7 bc
       -0.051596276 0.04302337 -0.027335575 -0.026246084
000380 ab d8 8b bc c4 69 dd 3d 35 a8 c2 bc ff 0c 98 bc
       -0.017071089 0.10811189 -0.023761848 -0.018560885
000390 20 64 4e 3d 3c 2c 88 3d c9 5e 50 3d f8 8d 5e bd
       0.050388455 0.06649062 0.050871644 -0.05433461
0003a0 97 71 bc 3c ad e3 76 3d da 82 a1 3d 95 e9 0b be
       0.023003383 0.060275722 0.07886286 -0.13663323
0003b0 97 bf e5 bd 33 11 42 bd f3 d0 90 bd f8 c1 43 bd
       -0.112181835 -0.047379684 -0.07071104 -0.047792405
0003c0 c9 f8 be 3d 12 be f8 3c 3e 78 8e 3d cb d5 c9 bc
       0.09324796 0.03036407 0.06956528 -0.024638077
0003d0 67 ce 41 bc a9 0d 11 3d ab 85 c0 3b 11 b0 5e 3d
       -0.011828995 0.035413418 0.0058753095 0.05436713
0003e0 24 49 84 3c b6 f4 30 3d 4e af a7 bd 84 83 60 be
       0.016148157 0.043202125 -0.081877336 -0.21925169
0003f0 c9 32 ec bd 75 38 f8 bd 28 df f6 bd f2 b6 5b be
       -0.11533124 -0.12120143 -0.120542824 -0.21456507

conv3.bias f4 [128]
000000 66 5a 85 bd 71 e3 a0 bd 32 16 54 bc 85 3d 39 bd
       -0.06511383 -0.07855881 -0.012944745 -0.045224685
000010 06 78 7e 3b df f1 0e bd 26 87 64 bd cf ea 20 bd
       0.0038828864 -0.034898635 -0.05579295 -0.03928643
000020 0a a9 61 bd fb 96 4f 3d 00 5a 20 bd b6 83 e5 bc
       -0.05509285 0.050681096 -0.03914833 -0.028016906
000030 eb 89 88 3c 63 eb c8 3c ee b2 69 bd c9 fe c7 bd
       0.016667327 0.024526304 -0.057055406 -0.09765393
000040 15 9c c5 3c 68 5e 2e b9 4a f0 10 bd 5e 96 ef bd
       0.024122277 -0.00016629102 -0.035385408 -0.11698602
000050 b6 0b 43 bc 9e 68 56 bd bd cc ea bc 23 bc a5 bc
       -0.011904648 -0.052345864 -0.02866208 -0.020231312
000060 29 02 4d 3d b3 32 90 bc b4 92 9f bd 16 81 ad 3c
       0.05005089 -0.0176023 -0.07791653 0.021179717
000070 9f b5 c7 bc e9 0e e0 3b 03 e1 a5 bd c4 6c 46 bd
       -0.024378596 0.006837715 -0.08099558 -0.04844357
000080 78 f7 2a bc 94 26 8c bc 92 c2 29 bd 6e 30 20 bc
       -0.010434978 -0.01710824 -0.041445322 -0.009777172
000090 65 b3 3d bd d1 80 e8 bd 78 bb 25 3c ea 9c 23 bd
       -0.046313662 -0.11352695 0.010115497 -0.039944567
0000a0 32 a9 95 bc 10 9e dd bd e3 39 28 bd 63 a0 52 bc
       -0.018269155 -0.10821164 -0.04107083 -0.012855622
0000b0 dd 5f 83 bc ca 01 e6 bd e4 3b 89 3c d9 4a 57 bd
       -0.016036922 -0.1123081 0.01675219 -0.052561615
0000c0 09 fe 66 bd 63 ac dc bb 98 f0 f0 bd f6 85 8e 3b
       -0.05639461 -0.0067344173 -0.117646396 0.0043494655
0000d0 9a 9b 65 3d 35 30 44 bd ec 10 8f bd 2e d0 d6 bb
       0.056056596 -0.047897536 -0.069856495 -0.0065555787
0000e0 92 4c 2b bd aa ad c5 bc e1 c3 8b bd f6 93 5d bd
       -0.04182107 -0.024130661 -0.0682447 -0.054096185
0000f0 24 69 ae bb 54 7c 8d bd 7d db a9 bc 89 a8 a2 bd
       -0.0053225923 -0.06908479 -0.020734543 -0.07942302
000100 c1 bc 8a bd 2a a7 79 bc fa d2 bd 3c 65 7b 36 bd
       -0.06774283 -0.015237609 0.02317189 -0.044551272
000110 aa bc ce bc d3 50 58 bd a0 eb ad 3c be a2 80 3a
       -0.025236446 -0.052811455 0.021230519 0.0009814126
000120 43 96 f0 bc e6 84 19 bd cc fe 31 bd 33 2b e7 bc
       -0.029368525 -0.037480257 -0.043455884 -0.028218841
000130 b3 c6 27 ba 81 f7 93 bc e4 2a d0 ba 7f 3b d1 3c
       -0.0006400153 -0.018062355 -0.0015881923 0.025541065
000140 36 16 bd bd 3d 4d 78 bd 6b d9 01 bd d0 43 50 3d
       -0.09232752 -0.060620535 -0.031701487 0.05084592
000150 cc ba 9e bd 52 3f 21 bd 8a 82 a6 bd 09 7d 82 bd
       -0.077504724 -0.039367028 -0.08130367 -0.06371505
000160 d6 b2 93 bd ef 86 bf 3a f7 02 6b bd c4 bf 66 bd
       -0.072118446 0.0014612357 -0.057375874 -0.056335226
000170 ab 46 e3 bb 47 1b 72 bc 65 94 48 bd 9c 67 b4 bd
       -0.0069359145 -0.014777011 -0.048969645 -0.088088244
000180 55 eb 8d bd b2 a4 09 bd 9a 74 88 bd 05 d3 27 bc
       -0.06929652 -0.03360433 -0.06662865 -0.010243182
000190 03 3b 85 bd a8 13 fa bb 30 8c 83 3a f4 b6 25 3b
       -0.06505396 -0.0076317377 0.0010036286 0.002528605
0001a0 97 a8 23 3d c4 3c b2 bd 17 23 11 3c 0e a1 c8 bb
       0.0399557 -0.087029964 0.008858464 -0.006122715
0001b0 e1 2e 9a bd 93 18 39 bd 89 c5 3a bd 36 2c 44 bd
       -0.07528473 -0.04518945 -0.04559854 -0.047893725
0001c0 ed b0 ea bc e0 fd 3e bd 6f b7 09 bc 27 1c 84 bd
       -0.028648818 -0.046628833 -0.00840555 -0.06450682
0001d0 8a 97 0c 3d 18 c1 fb bc be e7 4e bd 30 9d 5e 3b
       0.034324206 -0.030731723 -0.050513975 0.0033968203
0001e0 b6 c9 7f bd 89 da 6a bd 6e 3f 65 bd b9 e6 e7 bc
       -0.062448226 -0.057337318 -0.055968694 -0.02830826
0001f0 08 56 d7 3b 19 7d 62 bd 1e 0f 37 bd 67 d0 82 bb
       0.006571535 -0.055295084 -0.04469215 -0.0039921287

fc1.weight f4 [10, 128]
000000 69 53 c9 3d 89 c1 63 be 1b cf 25 3d 07 12 13 be
       0.09830362 -0.22241797 0.040480714 -0.14362346
000010 a5 63 12 be 25 13 71 bd eb 3c 28 be b0 5d 95 bd
       -0.14295824 -0.05885615 -0.16429488 -0.0729326
000020 08 21 0f 3e 96 b0 00 bf 9a 71 46 be d1 33 e3 bd
       0.13977444 -0.5026945 -0.19379273 -0.110938676
000030 6c cb 63 3c 42 5c ab bd d8 d6 93 bc 73 42 49 be
       0.01390348 -0.08367206 -0.018046781 -0.19654255
000040 37 de 05 be dc 0a d0 3d 76 5c be bc aa 12 83 be
       -0.1307305 0.10158321 -0.023237448 -0.25600177
000050 6e 3c 11 3d ab 87 eb 3d e9 b6 5f be da 1a 3d 3d
       0.03545802 0.11500486 -0.21847118 0.046168186
000060 f1 cb e5 bd 0b ce ea bd e3 4e 8f be 98 44 99 3c
       -0.11220539 -0.11465081 -0.27989873 0.018709466
000070 a0 4c ae bd ed 2c b5 be 2d d1 00 be b4 42 22 3e
       -0.08510709 -0.35385838 -0.12579794 0.15845758
000080 8b 38 0f 3e 81 ae 79 be b1 4b fb bb 44 4f 03 3e
       0.13986413 -0.24382974 -0.007668935 0.12823206
000090 f7 3e 2d 3c 24 9a 43 bc 5f 9d 01 be 8b 64 1a 3c
       0.010574094 -0.011938605 -0.12657689 0.009423385
0000a0 77 4d 05 3e ff 2d e4 bd ac 25 28 3d f4 2c 1d bd
       0.13017832 -0.111415856 0.04105155 -0.03837295
0000b0 46 4a fa 3d e0 76 2b be 8e 59 c7 3c 05 1f 1b 3c
       0.12221198 -0.16744566 0.024334695 0.009467845
0000c0 38 52 63 bd 6c 85 6a 3d 90 05 51 3d 4e 3c 93 3d
       -0.05549833 0.057256147 0.051030695 0.071892366
0000d0 08 21 1d 3d a1 be e2 bd 09 ed 7d bd fe f9 3c bb
       0.03836158 -0.11071516 -0.061993632 -0.002883553
0000e0 f2 a2 e0 3a 45 46 82 3d 79 c8 ae 3d 41 63 b5 bd
       0.0017138405 0.06361059 0.08534331 -0.08856822
0000f0 9e 87 80 be d0 ad f3 3c dd 0b 28 be 2b 35 8e 3c
       -0.25103468 0.029745966 -0.16410775 0.017359337
000100 3b 06 51 3d c7 43 4c be ce 51 77 3d a2 d3 07 bd
       0.051031332 -0.1994773 0.06038075 -0.033160813
000110 b1 c5 7f bd 1b 5f 0a 3c 23 3f 2c 3d 53 e9 25 3d
       -0.062444393 0.0084455265 0.0420524 0.04050572
000120 ac 4d 15 bd 10 d6 36 bd f9 6f 9b 3d be 5e 95 3d
       -0.036451027 -0.04463774 0.075897165 0.07293461
000130 c5 d2 18 be 15 06 3a 3c d5 e7 25 bd 14 83 83 bd
       -0.14924152 0.011353989 -0.040504295 -0.064214855
000140 bc bd e9 3d 40 27 8e bc 7c e8 af 3d a0 d0 4a be
       0.11413142 -0.0173527 0.08589265 -0.19806147
000150 de 10 23 be d6 50 aa 3d 66 bb 08 be c4 e1 a7 3d
       -0.15924403 0.083161995 -0.13352737 0.08197358
000160 d2 2c 33 3c 4d 24 ca 3d 98 23 cc bc 18 12 0b bd
       0.010935979 0.09870205 -0.024919316 -0.033952802
000170 ca 4c d2 be ff 0b e0 3c a0 0a 0a 3e 7f 2f 17 be
       -0.4107421 0.02734947 0.13480616 -0.14764212
000180 f7 93 9c bd 97 f1 03 3e 12 c1 a2 39 6c 71 7d 3d
       -0.076454096 0.12885128 0.00031042896 0.061875746
000190 31 6d 3a 3e d8 d7 cf bd 82 b4 36 bd 81 f4 e9 3d
       0.18205716 -0.10148591 -0.04460574 0.114235885
0001a0 f9 39 6e 3d cd 60 f9 3d 4f 86 76 bd 9d 8b ea bb
       0.058160756 0.121766664 -0.06018668 -0.0071577565
0001b0 dc 62 90 be db f5 7f be 1f 19 e0 3d a2 00 bd 3d
       -0.28200424 -0.2499613 0.109422915 0.09228636
0001c0 d8 9b 21 be 71 c6 a0 bd 8e 1c 4c be 1f c6 65 be
       -0.15782106 -0.0785035 -0.19932768 -0.22438858
0001d0 22 24 24 3e b6 23 10 be bb 35 18 bc 4d e4 60 bd
       0.16029409 -0.14076123 -0.009290154 -0.054905225
0001e0 35 fc 9d bd 18 4d 4c 3d 62 81 1e be 3c be f0 bd
       -0.0771412 0.04987821 -0.15479043 -0.11755034
0001f0 e1 34 b3 bc 80 b7 c0 bd 49 0c ea bd 83 f2 6a be
       -0.0218758 -0.0941 -0.114281245 -0.22944073
000200 c9 53 2b 3e 97 f9 47 3c 77 62 50 be e5 0c ef bd
       0.1673118 0.012205503 -0.20350061 -0.11672381
000210 f2 3d 12 bd 75 32 12 bd a3 fb 7d bd a5 e8 b4 be
       -0.035703607 -0.03569265 -0.062007558 -0.35333744
000220 5c b6 27 be bc 7e 3d 3e 7c fd 60 3d 56 38 b1 3d
       -0.16378158 0.18505377 0.05492924 0.08653323
000230 9d fa 54 3d 10 51 0c bc dd 07 9e 3d 4e 41 14 be
       0.051996816 -0.008564249 0.077163436 -0.14478037
000240 8a 76 93 be ba d7 28 be dd 37 ff bc cb 62 e1 bc
       -0.28801376 -0.16488543 -0.031154567 -0.027512928
000250 b8 ae 96 bd 7a 10 86 bd 6f 6b c0 3c dc d3 7d bd
       -0.07357544 -0.065461114 0.023488728 -0.061969623
000260 ac 73 f0 3d 97 fa af bc 51 be e9 bd 9d 3b 25 3d
       0.11740813 -0.021481795 -0.11413253 0.040340055
000270 d8 c7 e9 3d f1 d6 07 3e e6 c3 c2 bd 99 c4 03 be
       0.1141507 0.13265587 -0.09510021 -0.12867965
000280 f8 3a 8c be d0 7e ee 3c fc 1d c1 bb 69 28 d3 3d
       -0.2738874 0.029113203 -0.005893467 0.10310442
000290 f9 67 19 be 4d 8d ce be 1e aa a0 bd 3f 27 e3 3d
       -0.14981069 -0.4034218 -0.07844947 0.1109147
0002a0 60 93 74 be 28 8b 72 3d 32 e0 52 be de 13 83 3d
       -0.23884344 0.05921474 -0.20593336 0.06400274
0002b0 2d 2b fe bd a0 57 8f be aa 6c 3d 3e 87 e4 63 bd
       -0.12410579 -0.2799654 0.18498483 -0.055637863
0002c0 b9 8f da bd e4 e7 8e bd ba 8e 3a 3e d8 14 3a 3d
       -0.10671944 -0.069778234 0.18218508 0.045430034
0002d0 4a 88 d9 3d e0 06 db bd 6e 27 b5 bd 31 2f be bd
       0.10621698 -0.10694671 -0.08845411 -0.09286345
0002e0 c3 25 1c be 89 b2 8c bd 34 5c 66 3d 5e a3 e4 3d
       -0.1524878 -0.068699904 0.056240276 0.11163972
0002f0 b4 06 1c 3e de 37 c4 3d ab dd f0 bc 22 20 32 bd
       0.15236932 0.09580968 -0.029402575 -0.043487675
000300 9c d9 1e bd 28 93 14 be 90 dc 8b be 56 f3 af 3d
       -0.038781747 -0.1450926 -0.27316713 0.085913345
000310 98 dc 17 3c b9 47 cb ba a7 da 76 3d 34 f9 c9 be
       0.009268902 -0.0015509046 0.060267117 -0.3944794
000320 8f c8 b3 bd 69 66 bb bb d3 a2 68 be ae 96 1d 3d
       -0.08778488 -0.0057189954 -0.22718363 0.038473777
000330 d0 40 cd be 4d a5 6c be c6 e1 e0 bb 45 79 96 bd
       -0.4008851 -0.23109932 -0.006862852 -0.07347349
000340 26 f1 9a be fb f7 f8 3d a6 9a bc bd 98 10 00 3e
       -0.30262107 0.121566735 -0.09209184 0.1250633
000350 8e 4b 09 be 27 65 13 3e ed 2c 73 be c5 4a 3e bd
       -0.13407728 0.14394055 -0.23747607 -0.046458025
000360 8f 22 e8 bd 18 8d 3c 3d df 24 02 bd 51 a6 d7 bc
       -0.113347165 0.046032995 -0.031773444 -0.026324423
000370 ec 39 15 3e f8 e7 4a bb 22 1e 18 bd 9d 59 8f bd
       0.14572877 -0.0030961018 -0.037138112 -0.06999514
000380 5b 5b 83 be 7c ee c4 be 9e fe b5 3d fa d2 4f bd
       -0.25655636 -0.384632 0.08886455 -0.050738312
000390 44 0e 82 be 60 5e 70 bd 0a d8 e8 3d 1f a3 71 be
       -0.2540151 -0.058683753 0.11369331 -0.23597382
0003a0 19 fc b3 3d e3 a8 2f 3e d5 fb b8 be fe 76 76 bd
       0.08788318 0.17154269 -0.36129633 -0.060172074
0003b0 ac 95 ea bd e3 34 14 3e 19 90 ad be f5 49 1e bc
       -0.11454329 0.144733 -0.33899 -0.009661187
0003c0 9a 38 5c bd d5 36 58 3c 59 b4 5d bc 07 de 62 3d
       -0.053764917 0.013196667 -0.013531768 0.055387523
0003d0 e4 86 88 bc 14 68 10 3e 47 a9 b4 bc 6a 25 95 3d
       -0.016665883 0.14102203 -0.022053374 0.07282527
0003e0 e0 7c 74 be c9 97 6c be 23 73 78 3d 55 5f 96 be
       -0.23875761 -0.23104776 0.060656678 -0.29369608
0003f0 9b 29 2c bd a5 ca b1 bd 19 5d 61 be 3a 1a 93 3d
       -0.042031866 -0.086812295 -0.2200817 0.07182737

fc1.bias f4 [10]
000000 a4 12 5a 3e 1c de 81 3e 51 c1 70 be 52 d3 87 3d
       0.21296173 0.25364769 -0.23511244 0.06632103
000010 2a e9 1b 3e de 13 4a 3c b8 8b c8 3a 5e c0 a8 3e
       0.15225664 0.012333838 0.0015300428 0.32959265
000020 b0 4f fd bd 1b 0a a1 be
       -0.12368715 -0.31453022
